…
  [Schedule] CCA(reg=0.0038, cap=28) | EDCN(base=32, feat=128, drop=0.18, l2=0.0001) | CLF(hidden=40, drop=0.40, l2=0.0003)
  [ValMode] test-subset val: 50/class  (kept to preserve S<=6 behavior)

================= Model Summaries (printed once) =================

[EDCN - Vibration Branch]
Model: "EDCN_V_CLS"
_________________________________________________________________
 Layer (type)                Output Shape              Param #   
=================================================================
 V_in (InputLayer)           [(None, 2048, 1)]         0         
                                                                 
 V_conv1 (Conv1D)            (None, 2048, 32)          2080      
                                                                 
 V_bn1 (BatchNormalization)  (None, 2048, 32)          128       
                                                                 
 V_relu1 (Activation)        (None, 2048, 32)          0         
                                                                 
 V_pool1 (MaxPooling1D)      (None, 128, 32)           0         
                                                                 
 V_conv2 (Conv1D)            (None, 128, 64)           65600     
                                                                 
 V_bn2 (BatchNormalization)  (None, 128, 64)           256       
                                                                 
 V_relu2 (Activation)        (None, 128, 64)           0         
                                                                 
 V_pool2 (MaxPooling1D)      (None, 64, 64)            0         
                                                                 
 V_conv3 (Conv1D)            (None, 64, 128)           262272    
                                                                 
 V_bn3 (BatchNormalization)  (None, 64, 128)           512       
                                                                 
 V_relu3 (Activation)        (None, 64, 128)           0         
                                                                 
 V_pool3 (MaxPooling1D)      (None, 32, 128)           0         
                                                                 
 V_conv4 (Conv1D)            (None, 32, 256)           524544    
                                                                 
 V_bn4 (BatchNormalization)  (None, 32, 256)           1024      
                                                                 
 V_relu4 (Activation)        (None, 32, 256)           0         
                                                                 
 V_pool4 (MaxPooling1D)      (None, 16, 256)           0         
                                                                 
 V_gap (GlobalAveragePooling  (None, 256)              0         
 1D)                                                             
                                                                 
 V_fc1 (Dense)               (None, 128)               32896     
                                                                 
 V_head_dropout (Dropout)    (None, 128)               0         
                                                                 
 V_out (Dense)               (None, 7)                 903       
                                                                 
=================================================================
Total params: 890,215
Trainable params: 889,255
Non-trainable params: 960
_________________________________________________________________

[EDCN - Acoustic Branch]
Model: "EDCN_A_CLS"
_________________________________________________________________
 Layer (type)                Output Shape              Param #   
=================================================================
 A_in (InputLayer)           [(None, 2048, 1)]         0         
                                                                 
 A_conv1 (Conv1D)            (None, 2048, 32)          2080      
                                                                 
 A_bn1 (BatchNormalization)  (None, 2048, 32)          128       
                                                                 
 A_relu1 (Activation)        (None, 2048, 32)          0         
                                                                 
 A_pool1 (MaxPooling1D)      (None, 128, 32)           0         
                                                                 
 A_conv2 (Conv1D)            (None, 128, 64)           65600     
                                                                 
 A_bn2 (BatchNormalization)  (None, 128, 64)           256       
                                                                 
 A_relu2 (Activation)        (None, 128, 64)           0         
                                                                 
 A_pool2 (MaxPooling1D)      (None, 64, 64)            0         
                                                                 
 A_conv3 (Conv1D)            (None, 64, 128)           262272    
                                                                 
 A_bn3 (BatchNormalization)  (None, 64, 128)           512       
                                                                 
 A_relu3 (Activation)        (None, 64, 128)           0         
                                                                 
 A_pool3 (MaxPooling1D)      (None, 32, 128)           0         
                                                                 
 A_conv4 (Conv1D)            (None, 32, 256)           524544    
                                                                 
 A_bn4 (BatchNormalization)  (None, 32, 256)           1024      
                                                                 
 A_relu4 (Activation)        (None, 32, 256)           0         
                                                                 
 A_pool4 (MaxPooling1D)      (None, 16, 256)           0         
                                                                 
 A_gap (GlobalAveragePooling  (None, 256)              0         
 1D)                                                             
                                                                 
 A_fc1 (Dense)               (None, 128)               32896     
                                                                 
 A_head_dropout (Dropout)    (None, 128)               0         
                                                                 
 A_out (Dense)               (None, 7)                 903       
                                                                 
=================================================================
Total params: 890,215
Trainable params: 889,255
Non-trainable params: 960
_________________________________________________________________

[CFFN 2-Branch Wrapper]
Model: "CFFN_EDCN_2Branch"
__________________________________________________________________________________________________
…
