…
[CWT-CACHE] Done. time=1.56s

>>> Stage 2: Full experiment (Train 0Nm@BASE(0dB) | Test 2Nm&4Nm@BASE(0dB)) ...

>>> KDCNN-DF Model Summaries (Teacher / Student_53):
============================================================
Model: "TeacherCNN"
_________________________________________________________________
 Layer (type)                Output Shape              Param #   
=================================================================
 img_in (InputLayer)         [(None, 64, 64, 2)]       0         
                                                                 
 conv2d (Conv2D)             (None, 64, 64, 32)        1632      
                                                                 
 batch_normalization (BatchN  (None, 64, 64, 32)       128       
 ormalization)                                                   
                                                                 
 max_pooling2d (MaxPooling2D  (None, 32, 32, 32)       0         
 )                                                               
                                                                 
 conv2d_1 (Conv2D)           (None, 32, 32, 32)        9248      
                                                                 
 max_pooling2d_1 (MaxPooling  (None, 16, 16, 32)       0         
 2D)                                                             
                                                                 
 conv2d_2 (Conv2D)           (None, 16, 16, 64)        18496     
                                                                 
 max_pooling2d_2 (MaxPooling  (None, 8, 8, 64)         0         
 2D)                                                             
                                                                 
 conv2d_3 (Conv2D)           (None, 8, 8, 64)          36928     
                                                                 
 max_pooling2d_3 (MaxPooling  (None, 4, 4, 64)         0         
 2D)                                                             
                                                                 
 flatten (Flatten)           (None, 1024)              0         
                                                                 
 dense (Dense)               (None, 128)               131200    
                                                                 
 teacher_fc2 (Dense)         (None, 128)               16512     
                                                                 
 teacher_logits (Dense)      (None, 5)                 645       
                                                                 
 teacher_softmax (Softmax)   (None, 5)                 0         
                                                                 
=================================================================
Total params: 214,789
Trainable params: 214,725
Non-trainable params: 64
_________________________________________________________________
Model: "StudentCNN"
_________________________________________________________________
 Layer (type)                Output Shape              Param #   
=================================================================
 img_in (InputLayer)         [(None, 64, 64, 2)]       0         
                                                                 
 conv2d_4 (Conv2D)           (None, 64, 64, 8)         408       
                                                                 
 max_pooling2d_4 (MaxPooling  (None, 16, 16, 8)        0         
 2D)                                                             
                                                                 
 conv2d_5 (Conv2D)           (None, 16, 16, 8)         584       
                                                                 
 max_pooling2d_5 (MaxPooling  (None, 4, 4, 8)          0         
 2D)                                                             
                                                                 
 flatten_1 (Flatten)         (None, 128)               0         
                                                                 
 student_fc1 (Dense)         (None, 64)                8256      
                                                                 
 student_logits (Dense)      (None, 5)                 325       
                                                                 
 student_softmax (Softmax)   (None, 5)                 0         
                                                                 
=================================================================
Total params: 9,573
Trainable params: 9,573
Non-trainable params: 0
_________________________________________________________________
============================================================

[OK] Saved: D:\机械故障诊断实验\KAIST\KDCNN_DF_Comparison_KAIST_3\best_parameters.txt
…
