…
 Layer (type)                   Output Shape         Param #     Connected to                     
==================================================================================================
 Input_Vib (InputLayer)         [(None, 2048, 1)]    0           []                               
                                                                                                  
 Input_Cur (InputLayer)         [(None, 2048, 1)]    0           []                               
                                                                                                  
 conv1d (Conv1D)                (None, 1024, 32)     96          ['Input_Vib[0][0]']              
                                                                                                  
 conv1d_1 (Conv1D)              (None, 1024, 32)     96          ['Input_Cur[0][0]']              
                                                                                                  
 activation (Activation)        (None, 1024, 32)     0           ['conv1d[0][0]']                 
                                                                                                  
 activation_1 (Activation)      (None, 1024, 32)     0           ['conv1d_1[0][0]']               
                                                                                                  
 max_pooling1d (MaxPooling1D)   (None, 512, 32)      0           ['activation[0][0]']             
                                                                                                  
 max_pooling1d_1 (MaxPooling1D)  (None, 512, 32)     0           ['activation_1[0][0]']           
                                                                                                  
 Vib_DRRM1_ds1 (SeparableConv1D  (None, 256, 64)     2144        ['max_pooling1d[0][0]']          
 )                                                                                                
                                                                                                  
 Cur_DRRM1_ds1 (SeparableConv1D  (None, 256, 64)     2144        ['max_pooling1d_1[0][0]']        
 )                                                                                                
                                                                                                  
 Vib_DRRM1_prelu1 (PReLU)       (None, 256, 64)      64          ['Vib_DRRM1_ds1[0][0]']          
                                                                                                  
 Cur_DRRM1_prelu1 (PReLU)       (None, 256, 64)      64          ['Cur_DRRM1_ds1[0][0]']          
                                                                                                  
 Vib_DRRM1_ds2 (SeparableConv1D  (None, 256, 64)     4288        ['Vib_DRRM1_prelu1[0][0]']       
 )                                                                                                
                                                                                                  
 Vib_DRRM1_mp (MaxPooling1D)    (None, 256, 32)      0           ['max_pooling1d[0][0]']          
                                                                                                  
 Cur_DRRM1_ds2 (SeparableConv1D  (None, 256, 64)     4288        ['Cur_DRRM1_prelu1[0][0]']       
 )                                                                                                
                                                                                                  
 Cur_DRRM1_mp (MaxPooling1D)    (None, 256, 32)      0           ['max_pooling1d_1[0][0]']        
                                                                                                  
 Vib_DRRM1_prelu2 (PReLU)       (None, 256, 64)      64          ['Vib_DRRM1_ds2[0][0]']          
                                                                                                  
 Vib_DRRM1_proj (Conv1D)        (None, 256, 64)      2048        ['Vib_DRRM1_mp[0][0]']           
                                                                                                  
 Cur_DRRM1_prelu2 (PReLU)       (None, 256, 64)      64          ['Cur_DRRM1_ds2[0][0]']          
                                                                                                  
 Cur_DRRM1_proj (Conv1D)        (None, 256, 64)      2048        ['Cur_DRRM1_mp[0][0]']           
                                                                                                  
 Vib_DRRM1_add1 (Add)           (None, 256, 64)      0           ['Vib_DRRM1_prelu2[0][0]',       
                                                                  'Vib_DRRM1_proj[0][0]']         
                                                                                                  
 Cur_DRRM1_add1 (Add)           (None, 256, 64)      0           ['Cur_DRRM1_prelu2[0][0]',       
                                                                  'Cur_DRRM1_proj[0][0]']         
                                                                                                  
 Vib_DRRM1_prelu_res1 (PReLU)   (None, 256, 64)      64          ['Vib_DRRM1_add1[0][0]']         
                                                                                                  
 Cur_DRRM1_prelu_res1 (PReLU)   (None, 256, 64)      64          ['Cur_DRRM1_add1[0][0]']         
                                                                                                  
 Vib_DRRM1_conv_x1 (Conv1D)     (None, 128, 64)      12288       ['Vib_DRRM1_prelu1[0][0]']       
                                                                                                  
 Vib_DRRM1_conv_res1 (Conv1D)   (None, 128, 64)      12288       ['Vib_DRRM1_prelu_res1[0][0]']   
                                                                                                  
 Cur_DRRM1_conv_x1 (Conv1D)     (None, 128, 64)      12288       ['Cur_DRRM1_prelu1[0][0]']       
                                                                                                  
 Cur_DRRM1_conv_res1 (Conv1D)   (None, 128, 64)      12288       ['Cur_DRRM1_prelu_res1[0][0]']   
                                                                                                  
 Vib_DRRM1_prelu3 (PReLU)       (None, 128, 64)      64          ['Vib_DRRM1_conv_x1[0][0]']      
                                                                                                  
 Vib_DRRM1_prelu4 (PReLU)       (None, 128, 64)      64          ['Vib_DRRM1_conv_res1[0][0]']    
                                                                                                  
 Cur_DRRM1_prelu3 (PReLU)       (None, 128, 64)      64          ['Cur_DRRM1_conv_x1[0][0]']      
                                                                                                  
 Cur_DRRM1_prelu4 (PReLU)       (None, 128, 64)      64          ['Cur_DRRM1_conv_res1[0][0]']    
                                                                                                  
 Vib_DRRM1_add2 (Add)           (None, 128, 64)      0           ['Vib_DRRM1_prelu3[0][0]',       
                                                                  'Vib_DRRM1_prelu4[0][0]']       
                                                                                                  
 Cur_DRRM1_add2 (Add)           (None, 128, 64)      0           ['Cur_DRRM1_prelu3[0][0]',       
                                                                  'Cur_DRRM1_prelu4[0][0]']       
                                                                                                  
 Vib_DRRM1_prelu_res2 (PReLU)   (None, 128, 64)      64          ['Vib_DRRM1_add2[0][0]']         
                                                                                                  
 Cur_DRRM1_prelu_res2 (PReLU)   (None, 128, 64)      64          ['Cur_DRRM1_add2[0][0]']         
                                                                                                  
 Vib_DRRM2_ds1 (SeparableConv1D  (None, 64, 128)     8384        ['Vib_DRRM1_prelu_res2[0][0]']   
 )                                                                                                
                                                                                                  
 Cur_DRRM2_ds1 (SeparableConv1D  (None, 64, 128)     8384        ['Cur_DRRM1_prelu_res2[0][0]']   
 )                                                                                                
                                                                                                  
 Vib_DRRM2_prelu1 (PReLU)       (None, 64, 128)      128         ['Vib_DRRM2_ds1[0][0]']          
                                                                                                  
 Cur_DRRM2_prelu1 (PReLU)       (None, 64, 128)      128         ['Cur_DRRM2_ds1[0][0]']          
                                                                                                  
 Vib_DRRM2_ds2 (SeparableConv1D  (None, 64, 128)     16768       ['Vib_DRRM2_prelu1[0][0]']       
 )                                                                                                
                                                                                                  
 Vib_DRRM2_mp (MaxPooling1D)    (None, 64, 64)       0           ['Vib_DRRM1_prelu_res2[0][0]']   
                                                                                                  
 Cur_DRRM2_ds2 (SeparableConv1D  (None, 64, 128)     16768       ['Cur_DRRM2_prelu1[0][0]']       
 )                                                                                                
                                                                                                  
 Cur_DRRM2_mp (MaxPooling1D)    (None, 64, 64)       0           ['Cur_DRRM1_prelu_res2[0][0]']   
                                                                                                  
 Vib_DRRM2_prelu2 (PReLU)       (None, 64, 128)      128         ['Vib_DRRM2_ds2[0][0]']          
                                                                                                  
 Vib_DRRM2_proj (Conv1D)        (None, 64, 128)      8192        ['Vib_DRRM2_mp[0][0]']           
                                                                                                  
 Cur_DRRM2_prelu2 (PReLU)       (None, 64, 128)      128         ['Cur_DRRM2_ds2[0][0]']          
                                                                                                  
 Cur_DRRM2_proj (Conv1D)        (None, 64, 128)      8192        ['Cur_DRRM2_mp[0][0]']           
                                                                                                  
 Vib_DRRM2_add1 (Add)           (None, 64, 128)      0           ['Vib_DRRM2_prelu2[0][0]',       
                                                                  'Vib_DRRM2_proj[0][0]']         
                                                                                                  
 Cur_DRRM2_add1 (Add)           (None, 64, 128)      0           ['Cur_DRRM2_prelu2[0][0]',       
                                                                  'Cur_DRRM2_proj[0][0]']         
                                                                                                  
 Vib_DRRM2_prelu_res1 (PReLU)   (None, 64, 128)      128         ['Vib_DRRM2_add1[0][0]']         
                                                                                                  
 Cur_DRRM2_prelu_res1 (PReLU)   (None, 64, 128)      128         ['Cur_DRRM2_add1[0][0]']         
                                                                                                  
 Vib_DRRM2_conv_x1 (Conv1D)     (None, 32, 128)      49152       ['Vib_DRRM2_prelu1[0][0]']       
                                                                                                  
 Vib_DRRM2_conv_res1 (Conv1D)   (None, 32, 128)      49152       ['Vib_DRRM2_prelu_res1[0][0]']   
                                                                                                  
 Cur_DRRM2_conv_x1 (Conv1D)     (None, 32, 128)      49152       ['Cur_DRRM2_prelu1[0][0]']       
                                                                                                  
 Cur_DRRM2_conv_res1 (Conv1D)   (None, 32, 128)      49152       ['Cur_DRRM2_prelu_res1[0][0]']   
                                                                                                  
 Vib_DRRM2_prelu3 (PReLU)       (None, 32, 128)      128         ['Vib_DRRM2_conv_x1[0][0]']      
                                                                                                  
 Vib_DRRM2_prelu4 (PReLU)       (None, 32, 128)      128         ['Vib_DRRM2_conv_res1[0][0]']    
                                                                                                  
 Cur_DRRM2_prelu3 (PReLU)       (None, 32, 128)      128         ['Cur_DRRM2_conv_x1[0][0]']      
                                                                                                  
 Cur_DRRM2_prelu4 (PReLU)       (None, 32, 128)      128         ['Cur_DRRM2_conv_res1[0][0]']    
                                                                                                  
 Vib_DRRM2_add2 (Add)           (None, 32, 128)      0           ['Vib_DRRM2_prelu3[0][0]',       
                                                                  'Vib_DRRM2_prelu4[0][0]']       
                                                                                                  
 Cur_DRRM2_add2 (Add)           (None, 32, 128)      0           ['Cur_DRRM2_prelu3[0][0]',       
                                                                  'Cur_DRRM2_prelu4[0][0]']       
                                                                                                  
 Vib_DRRM2_prelu_res2 (PReLU)   (None, 32, 128)      128         ['Vib_DRRM2_add2[0][0]']         
                                                                                                  
 Cur_DRRM2_prelu_res2 (PReLU)   (None, 32, 128)      128         ['Cur_DRRM2_add2[0][0]']         
                                                                                                  
 Vib_SCRM_split_sru (Lambda)    [(None, 32, 64),     0           ['Vib_DRRM2_prelu_res2[0][0]']   
                                 (None, 32, 64)]                                                  
                                                                                                  
 Cur_SCRM_split_sru (Lambda)    [(None, 32, 64),     0           ['Cur_DRRM2_prelu_res2[0][0]']   
                                 (None, 32, 64)]                                                  
                                                                                                  
 Vib_SCRM_gn (GroupNorm1D)      (None, 32, 64)       128         ['Vib_SCRM_split_sru[0][0]']     
                                                                                                  
 Cur_SCRM_gn (GroupNorm1D)      (None, 32, 64)       128         ['Cur_SCRM_split_sru[0][0]']     
                                                                                                  
 Vib_SCRM_sigmoid_gate (Activat  (None, 32, 64)      0           ['Vib_SCRM_gn[0][0]']            
 ion)                                                                                             
                                                                                                  
 Cur_SCRM_sigmoid_gate (Activat  (None, 32, 64)      0           ['Cur_SCRM_gn[0][0]']            
 ion)                                                                                             
                                                                                                  
 Vib_SCRM_th_mask (Lambda)      (None, 32, 64)       0           ['Vib_SCRM_sigmoid_gate[0][0]']  
                                                                                                  
 Cur_SCRM_th_mask (Lambda)      (None, 32, 64)       0           ['Cur_SCRM_sigmoid_gate[0][0]']  
                                                                                                  
 Vib_SCRM_inv_mask (Lambda)     (None, 32, 64)       0           ['Vib_SCRM_th_mask[0][0]']       
                                                                                                  
 Cur_SCRM_inv_mask (Lambda)     (None, 32, 64)       0           ['Cur_SCRM_th_mask[0][0]']       
                                                                                                  
 tf.math.multiply (TFOpLambda)  (None, 32, 64)       0           ['Vib_SCRM_split_sru[0][0]',     
                                                                  'Vib_SCRM_th_mask[0][0]']       
                                                                                                  
 tf.math.multiply_1 (TFOpLambda  (None, 32, 64)      0           ['Vib_SCRM_split_sru[0][1]',     
 )                                                                'Vib_SCRM_inv_mask[0][0]']      
                                                                                                  
 tf.math.multiply_2 (TFOpLambda  (None, 32, 64)      0           ['Vib_SCRM_split_sru[0][1]',     
 )                                                                'Vib_SCRM_th_mask[0][0]']       
                                                                                                  
 tf.math.multiply_3 (TFOpLambda  (None, 32, 64)      0           ['Vib_SCRM_split_sru[0][0]',     
 )                                                                'Vib_SCRM_inv_mask[0][0]']      
                                                                                                  
 tf.math.multiply_6 (TFOpLambda  (None, 32, 64)      0           ['Cur_SCRM_split_sru[0][0]',     
 )                                                                'Cur_SCRM_th_mask[0][0]']       
                                                                                                  
 tf.math.multiply_7 (TFOpLambda  (None, 32, 64)      0           ['Cur_SCRM_split_sru[0][1]',     
 )                                                                'Cur_SCRM_inv_mask[0][0]']      
                                                                                                  
 tf.math.multiply_8 (TFOpLambda  (None, 32, 64)      0           ['Cur_SCRM_split_sru[0][1]',     
 )                                                                'Cur_SCRM_th_mask[0][0]']       
                                                                                                  
 tf.math.multiply_9 (TFOpLambda  (None, 32, 64)      0           ['Cur_SCRM_split_sru[0][0]',     
 )                                                                'Cur_SCRM_inv_mask[0][0]']      
                                                                                                  
 Vib_SCRM_sru_y1 (Add)          (None, 32, 64)       0           ['tf.math.multiply[0][0]',       
                                                                  'tf.math.multiply_1[0][0]']     
                                                                                                  
 Vib_SCRM_sru_y2 (Add)          (None, 32, 64)       0           ['tf.math.multiply_2[0][0]',     
                                                                  'tf.math.multiply_3[0][0]']     
                                                                                                  
 Cur_SCRM_sru_y1 (Add)          (None, 32, 64)       0           ['tf.math.multiply_6[0][0]',     
                                                                  'tf.math.multiply_7[0][0]']     
                                                                                                  
 Cur_SCRM_sru_y2 (Add)          (None, 32, 64)       0           ['tf.math.multiply_8[0][0]',     
                                                                  'tf.math.multiply_9[0][0]']     
                                                                                                  
 Vib_SCRM_concat_sru (Concatena  (None, 32, 128)     0           ['Vib_SCRM_sru_y1[0][0]',        
 te)                                                              'Vib_SCRM_sru_y2[0][0]']        
                                                                                                  
 Cur_SCRM_concat_sru (Concatena  (None, 32, 128)     0           ['Cur_SCRM_sru_y1[0][0]',        
 te)                                                              'Cur_SCRM_sru_y2[0][0]']        
                                                                                                  
 Vib_SCRM_split_cru (Lambda)    [(None, 32, 64),     0           ['Vib_SCRM_concat_sru[0][0]']    
                                 (None, 32, 64)]                                                  
                                                                                                  
 Cur_SCRM_split_cru (Lambda)    [(None, 32, 64),     0           ['Cur_SCRM_concat_sru[0][0]']    
                                 (None, 32, 64)]                                                  
                                                                                                  
 Vib_SCRM_y1_1x1 (Conv1D)       (None, 32, 128)      8192        ['Vib_SCRM_split_cru[0][0]']     
                                                                                                  
 Cur_SCRM_y1_1x1 (Conv1D)       (None, 32, 128)      8192        ['Cur_SCRM_split_cru[0][0]']     
                                                                                                  
 Vib_SCRM_y1_relu (Activation)  (None, 32, 128)      0           ['Vib_SCRM_y1_1x1[0][0]']        
                                                                                                  
 Cur_SCRM_y1_relu (Activation)  (None, 32, 128)      0           ['Cur_SCRM_y1_1x1[0][0]']        
                                                                                                  
 Vib_SCRM_gconv (Conv1D)        (None, 32, 128)      768         ['Vib_SCRM_y1_relu[0][0]']       
                                                                                                  
 Cur_SCRM_gconv (Conv1D)        (None, 32, 128)      768         ['Cur_SCRM_y1_relu[0][0]']       
                                                                                                  
 Vib_SCRM_gconv_relu (Activatio  (None, 32, 128)     0           ['Vib_SCRM_gconv[0][0]']         
 n)                                                                                               
                                                                                                  
 Vib_SCRM_y2_1x1 (Conv1D)       (None, 32, 128)      8192        ['Vib_SCRM_split_cru[0][1]']     
                                                                                                  
 Cur_SCRM_gconv_relu (Activatio  (None, 32, 128)     0           ['Cur_SCRM_gconv[0][0]']         
 n)                                                                                               
                                                                                                  
 Cur_SCRM_y2_1x1 (Conv1D)       (None, 32, 128)      8192        ['Cur_SCRM_split_cru[0][1]']     
                                                                                                  
 Vib_SCRM_y1_pconv (Conv1D)     (None, 32, 128)      16384       ['Vib_SCRM_gconv_relu[0][0]']    
                                                                                                  
 Vib_SCRM_y2_relu (Activation)  (None, 32, 128)      0           ['Vib_SCRM_y2_1x1[0][0]']        
                                                                                                  
 Cur_SCRM_y1_pconv (Conv1D)     (None, 32, 128)      16384       ['Cur_SCRM_gconv_relu[0][0]']    
                                                                                                  
 Cur_SCRM_y2_relu (Activation)  (None, 32, 128)      0           ['Cur_SCRM_y2_1x1[0][0]']        
                                                                                                  
 Vib_SCRM_gap1 (GlobalAveragePo  (None, 128)         0           ['Vib_SCRM_y1_pconv[0][0]']      
 oling1D)                                                                                         
                                                                                                  
 Vib_SCRM_gap2 (GlobalAveragePo  (None, 128)         0           ['Vib_SCRM_y2_relu[0][0]']       
 oling1D)                                                                                         
                                                                                                  
 Cur_SCRM_gap1 (GlobalAveragePo  (None, 128)         0           ['Cur_SCRM_y1_pconv[0][0]']      
 oling1D)                                                                                         
                                                                                                  
 Cur_SCRM_gap2 (GlobalAveragePo  (None, 128)         0           ['Cur_SCRM_y2_relu[0][0]']       
 oling1D)                                                                                         
                                                                                                  
 Vib_SCRM_g_concat (Concatenate  (None, 256)         0           ['Vib_SCRM_gap1[0][0]',          
 )                                                                'Vib_SCRM_gap2[0][0]']          
                                                                                                  
 Cur_SCRM_g_concat (Concatenate  (None, 256)         0           ['Cur_SCRM_gap1[0][0]',          
 )                                                                'Cur_SCRM_gap2[0][0]']          
                                                                                                  
 Vib_SCRM_softmax_g (Activation  (None, 256)         0           ['Vib_SCRM_g_concat[0][0]']      
 )                                                                                                
                                                                                                  
 Cur_SCRM_softmax_g (Activation  (None, 256)         0           ['Cur_SCRM_g_concat[0][0]']      
 )                                                                                                
                                                                                                  
 Vib_SCRM_g1 (Lambda)           (None, 128)          0           ['Vib_SCRM_softmax_g[0][0]']     
                                                                                                  
 Vib_SCRM_g2 (Lambda)           (None, 128)          0           ['Vib_SCRM_softmax_g[0][0]']     
                                                                                                  
 Cur_SCRM_g1 (Lambda)           (None, 128)          0           ['Cur_SCRM_softmax_g[0][0]']     
                                                                                                  
 Cur_SCRM_g2 (Lambda)           (None, 128)          0           ['Cur_SCRM_softmax_g[0][0]']     
                                                                                                  
 Vib_SCRM_g1e (Lambda)          (None, 1, 128)       0           ['Vib_SCRM_g1[0][0]']            
                                                                                                  
 Vib_SCRM_g2e (Lambda)          (None, 1, 128)       0           ['Vib_SCRM_g2[0][0]']            
                                                                                                  
 Cur_SCRM_g1e (Lambda)          (None, 1, 128)       0           ['Cur_SCRM_g1[0][0]']            
                                                                                                  
 Cur_SCRM_g2e (Lambda)          (None, 1, 128)       0           ['Cur_SCRM_g2[0][0]']            
                                                                                                  
 tf.math.multiply_4 (TFOpLambda  (None, 32, 128)     0           ['Vib_SCRM_y1_pconv[0][0]',      
 )                                                                'Vib_SCRM_g1e[0][0]']           
                                                                                                  
 tf.math.multiply_5 (TFOpLambda  (None, 32, 128)     0           ['Vib_SCRM_y2_relu[0][0]',       
 )                                                                'Vib_SCRM_g2e[0][0]']           
                                                                                                  
 tf.math.multiply_10 (TFOpLambd  (None, 32, 128)     0           ['Cur_SCRM_y1_pconv[0][0]',      
 a)                                                               'Cur_SCRM_g1e[0][0]']           
                                                                                                  
 tf.math.multiply_11 (TFOpLambd  (None, 32, 128)     0           ['Cur_SCRM_y2_relu[0][0]',       
 a)                                                               'Cur_SCRM_g2e[0][0]']           
                                                                                                  
 Vib_SCRM_out (Add)             (None, 32, 128)      0           ['tf.math.multiply_4[0][0]',     
                                                                  'tf.math.multiply_5[0][0]']     
                                                                                                  
 Cur_SCRM_out (Add)             (None, 32, 128)      0           ['tf.math.multiply_10[0][0]',    
                                                                  'tf.math.multiply_11[0][0]']    
                                                                                                  
 GIPFM_v1_gap (GlobalAveragePoo  (None, 128)         0           ['Vib_SCRM_out[0][0]']           
 ling1D)                                                                                          
                                                                                                  
 GIPFM_v2_gap (GlobalAveragePoo  (None, 128)         0           ['Cur_SCRM_out[0][0]']           
 ling1D)                                                                                          
                                                                                                  
 GIPFM_v1_fc1 (Dense)           (None, 32)           4128        ['GIPFM_v1_gap[0][0]']           
                                                                                                  
 GIPFM_v2_fc1 (Dense)           (None, 32)           4128        ['GIPFM_v2_gap[0][0]']           
                                                                                                  
 GIPFM_v1_fc2 (Dense)           (None, 128)          4224        ['GIPFM_v1_fc1[0][0]']           
                                                                                                  
 GIPFM_v2_fc2 (Dense)           (None, 128)          4224        ['GIPFM_v2_fc1[0][0]']           
                                                                                                  
 GIPFM_vsum (Add)               (None, 128)          0           ['GIPFM_v1_fc2[0][0]',           
                                                                  'GIPFM_v2_fc2[0][0]']           
                                                                                                  
 GIPFM_vr_fc1 (Dense)           (None, 32)           4128        ['GIPFM_vsum[0][0]']             
                                                                                                  
 GIPFM_vr_fc2 (Dense)           (None, 128)          4224        ['GIPFM_vr_fc1[0][0]']           
                                                                                                  
 add (Add)                      (None, 128)          0           ['GIPFM_vr_fc2[0][0]',           
                                                                  'GIPFM_v1_fc2[0][0]']           
                                                                                                  
 add_1 (Add)                    (None, 128)          0           ['GIPFM_vr_fc2[0][0]',           
                                                                  'GIPFM_v2_fc2[0][0]']           
                                                                                                  
 GIPFM_w1_sigmoid (Activation)  (None, 128)          0           ['add[0][0]']                    
                                                                                                  
 GIPFM_w2_sigmoid (Activation)  (None, 128)          0           ['add_1[0][0]']                  
                                                                                                  
 GIPFM_w1e (Lambda)             (None, 1, 128)       0           ['GIPFM_w1_sigmoid[0][0]']       
                                                                                                  
 GIPFM_w2e (Lambda)             (None, 1, 128)       0           ['GIPFM_w2_sigmoid[0][0]']       
                                                                                                  
 GIPFM_s1w (Multiply)           (None, 32, 128)      0           ['Vib_SCRM_out[0][0]',           
                                                                  'GIPFM_w1e[0][0]']              
                                                                                                  
 GIPFM_s2w (Multiply)           (None, 32, 128)      0           ['Cur_SCRM_out[0][0]',           
                                                                  'GIPFM_w2e[0][0]']              
                                                                                                  
 GIPFM_sum (Add)                (None, 32, 128)      0           ['GIPFM_s1w[0][0]',              
                                                                  'GIPFM_s2w[0][0]']              
                                                                                                  
 GIPFM_pconv (Conv1D)           (None, 32, 128)      16384       ['GIPFM_sum[0][0]']              
                                                                                                  
 GIPFM_pconv_relu (Activation)  (None, 32, 128)      0           ['GIPFM_pconv[0][0]']            
                                                                                                  
 CB_GAP (GlobalAveragePooling1D  (None, 128)         0           ['GIPFM_pconv_relu[0][0]']       
 )                                                                                                
                                                                                                  
 CB_FC (Dense)                  (None, 5)            645         ['CB_GAP[0][0]']                 
                                                                                                  
==================================================================================================
Total params: 441,317
Trainable params: 441,061
Non-trainable params: 256
__________________________________________________________________________________________________
…
