…
配置: 仅振动输入, 无声学, 无Attention, 无加权
最优参数: {'lr': 0.0013, 'batch_size': 32, 'n_layers_vib': 3, 'dropout_vib': 0.45}
日志路径: D:\机械故障诊断实验\MHCNN_Ablation_Experiment\Exp1_Single_Vib\experiment_log_Exp1.txt


>>> Model Architecture Summary (Ablation 1):
Model: "model"
_________________________________________________________________
 Layer (type)                Output Shape              Param #   
=================================================================
 input_vib (InputLayer)      [(None, 2048, 1)]         0         
                                                                 
 conv1d (Conv1D)             (None, 1024, 32)          544       
                                                                 
 leaky_re_lu (LeakyReLU)     (None, 1024, 32)          0         
                                                                 
 average_pooling1d (AverageP  (None, 512, 32)          0         
 ooling1D)                                                       
                                                                 
 conv1d_1 (Conv1D)           (None, 256, 64)           32832     
                                                                 
 leaky_re_lu_1 (LeakyReLU)   (None, 256, 64)           0         
                                                                 
 average_pooling1d_1 (Averag  (None, 128, 64)          0         
 ePooling1D)                                                     
                                                                 
 conv1d_2 (Conv1D)           (None, 128, 128)          131200    
                                                                 
 leaky_re_lu_2 (LeakyReLU)   (None, 128, 128)          0         
                                                                 
 dropout (Dropout)           (None, 128, 128)          0         
                                                                 
 average_pooling1d_2 (Averag  (None, 64, 128)          0         
 ePooling1D)                                                     
                                                                 
 flatten (Flatten)           (None, 8192)              0         
                                                                 
 dense (Dense)               (None, 256)               2097408   
                                                                 
 leaky_re_lu_3 (LeakyReLU)   (None, 256)               0         
                                                                 
 dense_1 (Dense)             (None, 7)                 1799      
                                                                 
=================================================================
Total params: 2,263,783
Trainable params: 2,263,783
Non-trainable params: 0
_________________________________________________________________
========================================


======== 测试样本量: 5 (Run 1-10) ========
  [S5-R1] Acc: 0.5783, F1: 0.5665
  [S5-R2] Acc: 0.4908, F1: 0.4377
…
