…
 Layer (type)                   Output Shape         Param #     Connected to                     
==================================================================================================
 vib_input (InputLayer)         [(None, 2048, 1)]    0           []                               
                                                                                                  
 cur_input (InputLayer)         [(None, 2048, 1)]    0           []                               
                                                                                                  
 vib_stem_conv (Conv1D)         (None, 1024, 64)     640         ['vib_input[0][0]']              
                                                                                                  
 cur_stem_conv (Conv1D)         (None, 1024, 64)     640         ['cur_input[0][0]']              
                                                                                                  
 vib_stem_gelu (Activation)     (None, 1024, 64)     0           ['vib_stem_conv[0][0]']          
                                                                                                  
 cur_stem_gelu (Activation)     (None, 1024, 64)     0           ['cur_stem_conv[0][0]']          
                                                                                                  
 vib_stem_pool (MaxPooling1D)   (None, 512, 64)      0           ['vib_stem_gelu[0][0]']          
                                                                                                  
 cur_stem_pool (MaxPooling1D)   (None, 512, 64)      0           ['cur_stem_gelu[0][0]']          
                                                                                                  
 vib_msf1_k3_d1 (Conv1D)        (None, 512, 96)      18528       ['vib_stem_pool[0][0]']          
                                                                                                  
 vib_msf1_k5_d2 (Conv1D)        (None, 512, 96)      30816       ['vib_stem_pool[0][0]']          
                                                                                                  
 vib_msf1_k7_d4 (Conv1D)        (None, 512, 96)      43104       ['vib_stem_pool[0][0]']          
                                                                                                  
 cur_msf1_k3_d1 (Conv1D)        (None, 512, 96)      18528       ['cur_stem_pool[0][0]']          
                                                                                                  
 cur_msf1_k5_d2 (Conv1D)        (None, 512, 96)      30816       ['cur_stem_pool[0][0]']          
                                                                                                  
 cur_msf1_k7_d4 (Conv1D)        (None, 512, 96)      43104       ['cur_stem_pool[0][0]']          
                                                                                                  
 vib_msf1_b1_gelu (Activation)  (None, 512, 96)      0           ['vib_msf1_k3_d1[0][0]']         
                                                                                                  
 vib_msf1_b2_gelu (Activation)  (None, 512, 96)      0           ['vib_msf1_k5_d2[0][0]']         
                                                                                                  
 vib_msf1_b3_gelu (Activation)  (None, 512, 96)      0           ['vib_msf1_k7_d4[0][0]']         
                                                                                                  
 cur_msf1_b1_gelu (Activation)  (None, 512, 96)      0           ['cur_msf1_k3_d1[0][0]']         
                                                                                                  
 cur_msf1_b2_gelu (Activation)  (None, 512, 96)      0           ['cur_msf1_k5_d2[0][0]']         
                                                                                                  
 cur_msf1_b3_gelu (Activation)  (None, 512, 96)      0           ['cur_msf1_k7_d4[0][0]']         
                                                                                                  
 vib_msf1_concat (Concatenate)  (None, 512, 288)     0           ['vib_msf1_b1_gelu[0][0]',       
                                                                  'vib_msf1_b2_gelu[0][0]',       
                                                                  'vib_msf1_b3_gelu[0][0]']       
                                                                                                  
 cur_msf1_concat (Concatenate)  (None, 512, 288)     0           ['cur_msf1_b1_gelu[0][0]',       
                                                                  'cur_msf1_b2_gelu[0][0]',       
                                                                  'cur_msf1_b3_gelu[0][0]']       
                                                                                                  
 vib_msf1_fuse1x1 (Conv1D)      (None, 512, 96)      27744       ['vib_msf1_concat[0][0]']        
                                                                                                  
 cur_msf1_fuse1x1 (Conv1D)      (None, 512, 96)      27744       ['cur_msf1_concat[0][0]']        
                                                                                                  
 vib_msf1_proj (Conv1D)         (None, 512, 96)      6240        ['vib_stem_pool[0][0]']          
                                                                                                  
 vib_msf1_drop (Dropout)        (None, 512, 96)      0           ['vib_msf1_fuse1x1[0][0]']       
                                                                                                  
 cur_msf1_proj (Conv1D)         (None, 512, 96)      6240        ['cur_stem_pool[0][0]']          
                                                                                                  
 cur_msf1_drop (Dropout)        (None, 512, 96)      0           ['cur_msf1_fuse1x1[0][0]']       
                                                                                                  
 vib_msf1_add (Add)             (None, 512, 96)      0           ['vib_msf1_proj[0][0]',          
                                                                  'vib_msf1_drop[0][0]']          
                                                                                                  
 cur_msf1_add (Add)             (None, 512, 96)      0           ['cur_msf1_proj[0][0]',          
                                                                  'cur_msf1_drop[0][0]']          
                                                                                                  
 vib_msf1_out_gelu (Activation)  (None, 512, 96)     0           ['vib_msf1_add[0][0]']           
                                                                                                  
 cur_msf1_out_gelu (Activation)  (None, 512, 96)     0           ['cur_msf1_add[0][0]']           
                                                                                                  
 vib_msf2_k3_d1 (Conv1D)        (None, 512, 96)      27744       ['vib_msf1_out_gelu[0][0]']      
                                                                                                  
 vib_msf2_k5_d2 (Conv1D)        (None, 512, 96)      46176       ['vib_msf1_out_gelu[0][0]']      
                                                                                                  
 vib_msf2_k7_d4 (Conv1D)        (None, 512, 96)      64608       ['vib_msf1_out_gelu[0][0]']      
                                                                                                  
 cur_msf2_k3_d1 (Conv1D)        (None, 512, 96)      27744       ['cur_msf1_out_gelu[0][0]']      
                                                                                                  
 cur_msf2_k5_d2 (Conv1D)        (None, 512, 96)      46176       ['cur_msf1_out_gelu[0][0]']      
                                                                                                  
 cur_msf2_k7_d4 (Conv1D)        (None, 512, 96)      64608       ['cur_msf1_out_gelu[0][0]']      
                                                                                                  
 vib_msf2_b1_gelu (Activation)  (None, 512, 96)      0           ['vib_msf2_k3_d1[0][0]']         
                                                                                                  
 vib_msf2_b2_gelu (Activation)  (None, 512, 96)      0           ['vib_msf2_k5_d2[0][0]']         
                                                                                                  
 vib_msf2_b3_gelu (Activation)  (None, 512, 96)      0           ['vib_msf2_k7_d4[0][0]']         
                                                                                                  
 cur_msf2_b1_gelu (Activation)  (None, 512, 96)      0           ['cur_msf2_k3_d1[0][0]']         
                                                                                                  
 cur_msf2_b2_gelu (Activation)  (None, 512, 96)      0           ['cur_msf2_k5_d2[0][0]']         
                                                                                                  
 cur_msf2_b3_gelu (Activation)  (None, 512, 96)      0           ['cur_msf2_k7_d4[0][0]']         
                                                                                                  
 vib_msf2_concat (Concatenate)  (None, 512, 288)     0           ['vib_msf2_b1_gelu[0][0]',       
                                                                  'vib_msf2_b2_gelu[0][0]',       
                                                                  'vib_msf2_b3_gelu[0][0]']       
                                                                                                  
 cur_msf2_concat (Concatenate)  (None, 512, 288)     0           ['cur_msf2_b1_gelu[0][0]',       
                                                                  'cur_msf2_b2_gelu[0][0]',       
                                                                  'cur_msf2_b3_gelu[0][0]']       
                                                                                                  
 vib_msf2_fuse1x1 (Conv1D)      (None, 512, 96)      27744       ['vib_msf2_concat[0][0]']        
                                                                                                  
 cur_msf2_fuse1x1 (Conv1D)      (None, 512, 96)      27744       ['cur_msf2_concat[0][0]']        
                                                                                                  
 vib_msf2_drop (Dropout)        (None, 512, 96)      0           ['vib_msf2_fuse1x1[0][0]']       
                                                                                                  
 cur_msf2_drop (Dropout)        (None, 512, 96)      0           ['cur_msf2_fuse1x1[0][0]']       
                                                                                                  
 vib_msf2_add (Add)             (None, 512, 96)      0           ['vib_msf1_out_gelu[0][0]',      
                                                                  'vib_msf2_drop[0][0]']          
                                                                                                  
 cur_msf2_add (Add)             (None, 512, 96)      0           ['cur_msf1_out_gelu[0][0]',      
                                                                  'cur_msf2_drop[0][0]']          
                                                                                                  
 vib_msf2_out_gelu (Activation)  (None, 512, 96)     0           ['vib_msf2_add[0][0]']           
                                                                                                  
 cur_msf2_out_gelu (Activation)  (None, 512, 96)     0           ['cur_msf2_add[0][0]']           
                                                                                                  
 vib_tokenize (Conv1D)          (None, 128, 128)     49280       ['vib_msf2_out_gelu[0][0]']      
                                                                                                  
 cur_tokenize (Conv1D)          (None, 128, 128)     49280       ['cur_msf2_out_gelu[0][0]']      
                                                                                                  
 vib_tok_drop (Dropout)         (None, 128, 128)     0           ['vib_tokenize[0][0]']           
                                                                                                  
 cur_tok_drop (Dropout)         (None, 128, 128)     0           ['cur_tokenize[0][0]']           
                                                                                                  
 vib_dformer1_ln1 (LayerNormali  (None, 128, 128)    256         ['vib_tok_drop[0][0]']           
 zation)                                                                                          
                                                                                                  
 cur_dformer1_ln1 (LayerNormali  (None, 128, 128)    256         ['cur_tok_drop[0][0]']           
 zation)                                                                                          
                                                                                                  
 vib_dformer1_mha (MultiHeadAtt  (None, 128, 128)    66048       ['vib_dformer1_ln1[0][0]',       
 ention)                                                          'vib_dformer1_ln1[0][0]']       
                                                                                                  
 cur_dformer1_mha (MultiHeadAtt  (None, 128, 128)    66048       ['cur_dformer1_ln1[0][0]',       
 ention)                                                          'cur_dformer1_ln1[0][0]']       
                                                                                                  
 vib_dformer1_add1 (Add)        (None, 128, 128)     0           ['vib_tok_drop[0][0]',           
                                                                  'vib_dformer1_mha[0][0]']       
                                                                                                  
 cur_dformer1_add1 (Add)        (None, 128, 128)     0           ['cur_tok_drop[0][0]',           
                                                                  'cur_dformer1_mha[0][0]']       
                                                                                                  
 vib_dformer1_ln2 (LayerNormali  (None, 128, 128)    256         ['vib_dformer1_add1[0][0]']      
 zation)                                                                                          
                                                                                                  
 cur_dformer1_ln2 (LayerNormali  (None, 128, 128)    256         ['cur_dformer1_add1[0][0]']      
 zation)                                                                                          
                                                                                                  
 vib_dformer1_ff1 (Dense)       (None, 128, 256)     33024       ['vib_dformer1_ln2[0][0]']       
                                                                                                  
 cur_dformer1_ff1 (Dense)       (None, 128, 256)     33024       ['cur_dformer1_ln2[0][0]']       
                                                                                                  
 vib_dformer1_ffdrop (Dropout)  (None, 128, 256)     0           ['vib_dformer1_ff1[0][0]']       
                                                                                                  
 cur_dformer1_ffdrop (Dropout)  (None, 128, 256)     0           ['cur_dformer1_ff1[0][0]']       
                                                                                                  
 vib_dformer1_ff2 (Dense)       (None, 128, 128)     32896       ['vib_dformer1_ffdrop[0][0]']    
                                                                                                  
 cur_dformer1_ff2 (Dense)       (None, 128, 128)     32896       ['cur_dformer1_ffdrop[0][0]']    
                                                                                                  
 vib_dformer1_add2 (Add)        (None, 128, 128)     0           ['vib_dformer1_add1[0][0]',      
                                                                  'vib_dformer1_ff2[0][0]']       
                                                                                                  
 cur_dformer1_add2 (Add)        (None, 128, 128)     0           ['cur_dformer1_add1[0][0]',      
                                                                  'cur_dformer1_ff2[0][0]']       
                                                                                                  
 vib_dformer2_ln1 (LayerNormali  (None, 128, 128)    256         ['vib_dformer1_add2[0][0]']      
 zation)                                                                                          
                                                                                                  
 cur_dformer2_ln1 (LayerNormali  (None, 128, 128)    256         ['cur_dformer1_add2[0][0]']      
 zation)                                                                                          
                                                                                                  
 vib_dformer2_mha (MultiHeadAtt  (None, 128, 128)    66048       ['vib_dformer2_ln1[0][0]',       
 ention)                                                          'vib_dformer2_ln1[0][0]']       
                                                                                                  
 cur_dformer2_mha (MultiHeadAtt  (None, 128, 128)    66048       ['cur_dformer2_ln1[0][0]',       
 ention)                                                          'cur_dformer2_ln1[0][0]']       
                                                                                                  
 vib_dformer2_add1 (Add)        (None, 128, 128)     0           ['vib_dformer1_add2[0][0]',      
                                                                  'vib_dformer2_mha[0][0]']       
                                                                                                  
 cur_dformer2_add1 (Add)        (None, 128, 128)     0           ['cur_dformer1_add2[0][0]',      
                                                                  'cur_dformer2_mha[0][0]']       
                                                                                                  
 vib_dformer2_ln2 (LayerNormali  (None, 128, 128)    256         ['vib_dformer2_add1[0][0]']      
 zation)                                                                                          
                                                                                                  
 cur_dformer2_ln2 (LayerNormali  (None, 128, 128)    256         ['cur_dformer2_add1[0][0]']      
 zation)                                                                                          
                                                                                                  
 vib_dformer2_ff1 (Dense)       (None, 128, 256)     33024       ['vib_dformer2_ln2[0][0]']       
                                                                                                  
 cur_dformer2_ff1 (Dense)       (None, 128, 256)     33024       ['cur_dformer2_ln2[0][0]']       
                                                                                                  
 vib_dformer2_ffdrop (Dropout)  (None, 128, 256)     0           ['vib_dformer2_ff1[0][0]']       
                                                                                                  
 cur_dformer2_ffdrop (Dropout)  (None, 128, 256)     0           ['cur_dformer2_ff1[0][0]']       
                                                                                                  
 vib_dformer2_ff2 (Dense)       (None, 128, 128)     32896       ['vib_dformer2_ffdrop[0][0]']    
                                                                                                  
 cur_dformer2_ff2 (Dense)       (None, 128, 128)     32896       ['cur_dformer2_ffdrop[0][0]']    
                                                                                                  
 vib_dformer2_add2 (Add)        (None, 128, 128)     0           ['vib_dformer2_add1[0][0]',      
                                                                  'vib_dformer2_ff2[0][0]']       
                                                                                                  
 cur_dformer2_add2 (Add)        (None, 128, 128)     0           ['cur_dformer2_add1[0][0]',      
                                                                  'cur_dformer2_ff2[0][0]']       
                                                                                                  
 vib_ln_out (LayerNormalization  (None, 128, 128)    256         ['vib_dformer2_add2[0][0]']      
 )                                                                                                
                                                                                                  
 cur_ln_out (LayerNormalization  (None, 128, 128)    256         ['cur_dformer2_add2[0][0]']      
 )                                                                                                
                                                                                                  
 vib_gap (GlobalAveragePooling1  (None, 128)         0           ['vib_ln_out[0][0]']             
 D)                                                                                               
                                                                                                  
 cur_gap (GlobalAveragePooling1  (None, 128)         0           ['cur_ln_out[0][0]']             
 D)                                                                                               
                                                                                                  
 vib_vec_drop (Dropout)         (None, 128)          0           ['vib_gap[0][0]']                
                                                                                                  
 cur_vec_drop (Dropout)         (None, 128)          0           ['cur_gap[0][0]']                
                                                                                                  
 fusion_concat (Concatenate)    (None, 256)          0           ['vib_vec_drop[0][0]',           
                                                                  'cur_vec_drop[0][0]']           
                                                                                                  
 fusion_fc1 (Dense)             (None, 256)          65792       ['fusion_concat[0][0]']          
                                                                                                  
 fusion_drop (Dropout)          (None, 256)          0           ['fusion_fc1[0][0]']             
                                                                                                  
 fusion_fc2 (Dense)             (None, 256)          65792       ['fusion_drop[0][0]']            
                                                                                                  
 feat_drop (Dropout)            (None, 256)          0           ['fusion_fc2[0][0]']             
                                                                                                  
 pred (Dense)                   (None, 5)            1285        ['feat_drop[0][0]']              
                                                                                                  
==================================================================================================
Total params: 1,348,549
Trainable params: 1,348,549
Non-trainable params: 0
__________________________________________________________________________________________________
…
