…
============================================================
Model: "model_60"
__________________________________________________________________________________________________
 Layer (type)                   Output Shape         Param #     Connected to                     
==================================================================================================
 input_62 (InputLayer)          [(None, 2048, 1)]    0           []                               
                                                                                                  
 conv1d_257 (Conv1D)            (None, 1024, 32)     288         ['input_62[0][0]']               
                                                                                                  
 activation_131 (Activation)    (None, 1024, 32)     0           ['conv1d_257[0][0]']             
                                                                                                  
 max_pooling1d_131 (MaxPooling1  (None, 512, 32)     0           ['activation_131[0][0]']         
 D)                                                                                               
                                                                                                  
 input_61 (InputLayer)          [(None, 2048, 1)]    0           []                               
                                                                                                  
 conv1d_258 (Conv1D)            (None, 256, 64)      16448       ['max_pooling1d_131[0][0]']      
                                                                                                  
 conv1d_253 (Conv1D)            (None, 1024, 32)     544         ['input_61[0][0]']               
                                                                                                  
 activation_132 (Activation)    (None, 256, 64)      0           ['conv1d_258[0][0]']             
                                                                                                  
 leaky_re_lu_152 (LeakyReLU)    (None, 1024, 32)     0           ['conv1d_253[0][0]']             
                                                                                                  
 max_pooling1d_132 (MaxPooling1  (None, 128, 64)     0           ['activation_132[0][0]']         
 D)                                                                                               
                                                                                                  
 average_pooling1d_122 (Average  (None, 512, 32)     0           ['leaky_re_lu_152[0][0]']        
 Pooling1D)                                                                                       
                                                                                                  
 conv1d_259 (Conv1D)            (None, 128, 128)     65664       ['max_pooling1d_132[0][0]']      
                                                                                                  
 conv1d_254 (Conv1D)            (None, 256, 64)      32832       ['average_pooling1d_122[0][0]']  
                                                                                                  
 activation_133 (Activation)    (None, 128, 128)     0           ['conv1d_259[0][0]']             
                                                                                                  
 leaky_re_lu_153 (LeakyReLU)    (None, 256, 64)      0           ['conv1d_254[0][0]']             
                                                                                                  
 max_pooling1d_133 (MaxPooling1  (None, 64, 128)     0           ['activation_133[0][0]']         
 D)                                                                                               
                                                                                                  
 average_pooling1d_123 (Average  (None, 128, 64)     0           ['leaky_re_lu_153[0][0]']        
 Pooling1D)                                                                                       
                                                                                                  
 conv1d_260 (Conv1D)            (None, 64, 256)      262400      ['max_pooling1d_133[0][0]']      
                                                                                                  
 conv1d_255 (Conv1D)            (None, 128, 128)     131200      ['average_pooling1d_123[0][0]']  
                                                                                                  
 activation_134 (Activation)    (None, 64, 256)      0           ['conv1d_260[0][0]']             
                                                                                                  
 leaky_re_lu_154 (LeakyReLU)    (None, 128, 128)     0           ['conv1d_255[0][0]']             
                                                                                                  
 max_pooling1d_134 (MaxPooling1  (None, 32, 256)     0           ['activation_134[0][0]']         
 D)                                                                                               
                                                                                                  
 average_pooling1d_124 (Average  (None, 64, 128)     0           ['leaky_re_lu_154[0][0]']        
 Pooling1D)                                                                                       
                                                                                                  
 conv1d_261 (Conv1D)            (None, 32, 256)      524544      ['max_pooling1d_134[0][0]']      
                                                                                                  
 conv1d_256 (Conv1D)            (None, 64, 256)      524544      ['average_pooling1d_124[0][0]']  
                                                                                                  
 activation_135 (Activation)    (None, 32, 256)      0           ['conv1d_261[0][0]']             
                                                                                                  
 leaky_re_lu_155 (LeakyReLU)    (None, 64, 256)      0           ['conv1d_256[0][0]']             
                                                                                                  
 dropout_61 (Dropout)           (None, 32, 256)      0           ['activation_135[0][0]']         
                                                                                                  
 dropout_60 (Dropout)           (None, 64, 256)      0           ['leaky_re_lu_155[0][0]']        
                                                                                                  
 max_pooling1d_135 (MaxPooling1  (None, 16, 256)     0           ['dropout_61[0][0]']             
 D)                                                                                               
                                                                                                  
 average_pooling1d_125 (Average  (None, 32, 256)     0           ['dropout_60[0][0]']             
 Pooling1D)                                                                                       
                                                                                                  
 cross_attention_61 (CrossAtten  (None, 16, 256)     196608      ['max_pooling1d_135[0][0]',      
 tion)                                                            'average_pooling1d_125[0][0]']  
                                                                                                  
 cross_attention_60 (CrossAtten  (None, 32, 256)     196608      ['average_pooling1d_125[0][0]',  
 tion)                                                            'max_pooling1d_135[0][0]']      
                                                                                                  
 flatten_60 (Flatten)           (None, 4096)         0           ['cross_attention_61[0][0]']     
                                                                                                  
 flatten_61 (Flatten)           (None, 8192)         0           ['cross_attention_60[0][0]']     
                                                                                                  
 dense_151 (Dense)              (None, 1)            4097        ['flatten_60[0][0]']             
                                                                                                  
 dense_152 (Dense)              (None, 1)            8193        ['flatten_61[0][0]']             
                                                                                                  
 concatenate_60 (Concatenate)   (None, 2)            0           ['dense_151[0][0]',              
                                                                  'dense_152[0][0]']              
                                                                                                  
 dense_150 (Dense)              (None, 2)            6           ['concatenate_60[0][0]']         
                                                                                                  
 tf.__operators__.getitem_60 (S  (None, 1)           0           ['dense_150[0][0]']              
 licingOpLambda)                                                                                  
                                                                                                  
 tf.__operators__.getitem_61 (S  (None, 1)           0           ['dense_150[0][0]']              
 licingOpLambda)                                                                                  
                                                                                                  
 lambda_60 (Lambda)             (None, 4096)         0           ['flatten_60[0][0]',             
                                                                  'tf.__operators__.getitem_60[0][
                                                                 0]']                             
                                                                                                  
 lambda_61 (Lambda)             (None, 8192)         0           ['flatten_61[0][0]',             
                                                                  'tf.__operators__.getitem_61[0][
                                                                 0]']                             
                                                                                                  
 concatenate_61 (Concatenate)   (None, 12288)        0           ['lambda_60[0][0]',              
                                                                  'lambda_61[0][0]']              
                                                                                                  
 dense_153 (Dense)              (None, 256)          3145984     ['concatenate_61[0][0]']         
                                                                                                  
 leaky_re_lu_156 (LeakyReLU)    (None, 256)          0           ['dense_153[0][0]']              
                                                                                                  
 dense_154 (Dense)              (None, 7)            1799        ['leaky_re_lu_156[0][0]']        
                                                                                                  
==================================================================================================
Total params: 5,111,759
Trainable params: 5,111,759
Non-trainable params: 0
__________________________________________________________________________________________________
…
