…
日志路径: D:\机械故障诊断实验\MHCNN_Ablation_Experiment\Exp4_With_CAIM_No_AMRM\experiment_log_Exp4.txt


>>> Model Architecture Summary (Ablation 4):
Model: "model"
__________________________________________________________________________________________________
 Layer (type)                   Output Shape         Param #     Connected to                     
==================================================================================================
 input_aco (InputLayer)         [(None, 2048, 1)]    0           []                               
                                                                                                  
 conv1d_3 (Conv1D)              (None, 1024, 32)     288         ['input_aco[0][0]']              
                                                                                                  
 activation (Activation)        (None, 1024, 32)     0           ['conv1d_3[0][0]']               
                                                                                                  
 max_pooling1d (MaxPooling1D)   (None, 512, 32)      0           ['activation[0][0]']             
                                                                                                  
 conv1d_4 (Conv1D)              (None, 256, 64)      16448       ['max_pooling1d[0][0]']          
                                                                                                  
 activation_1 (Activation)      (None, 256, 64)      0           ['conv1d_4[0][0]']               
                                                                                                  
 max_pooling1d_1 (MaxPooling1D)  (None, 128, 64)     0           ['activation_1[0][0]']           
                                                                                                  
 input_vib (InputLayer)         [(None, 2048, 1)]    0           []                               
                                                                                                  
 conv1d_5 (Conv1D)              (None, 128, 128)     65664       ['max_pooling1d_1[0][0]']        
                                                                                                  
 conv1d (Conv1D)                (None, 1024, 32)     544         ['input_vib[0][0]']              
                                                                                                  
 activation_2 (Activation)      (None, 128, 128)     0           ['conv1d_5[0][0]']               
                                                                                                  
 leaky_re_lu (LeakyReLU)        (None, 1024, 32)     0           ['conv1d[0][0]']                 
                                                                                                  
 max_pooling1d_2 (MaxPooling1D)  (None, 64, 128)     0           ['activation_2[0][0]']           
                                                                                                  
 average_pooling1d (AveragePool  (None, 512, 32)     0           ['leaky_re_lu[0][0]']            
 ing1D)                                                                                           
                                                                                                  
 conv1d_6 (Conv1D)              (None, 64, 256)      262400      ['max_pooling1d_2[0][0]']        
                                                                                                  
 conv1d_1 (Conv1D)              (None, 256, 64)      32832       ['average_pooling1d[0][0]']      
                                                                                                  
 activation_3 (Activation)      (None, 64, 256)      0           ['conv1d_6[0][0]']               
                                                                                                  
 leaky_re_lu_1 (LeakyReLU)      (None, 256, 64)      0           ['conv1d_1[0][0]']               
                                                                                                  
 max_pooling1d_3 (MaxPooling1D)  (None, 32, 256)     0           ['activation_3[0][0]']           
                                                                                                  
 average_pooling1d_1 (AveragePo  (None, 128, 64)     0           ['leaky_re_lu_1[0][0]']          
 oling1D)                                                                                         
                                                                                                  
 conv1d_7 (Conv1D)              (None, 32, 256)      524544      ['max_pooling1d_3[0][0]']        
                                                                                                  
 conv1d_2 (Conv1D)              (None, 128, 128)     131200      ['average_pooling1d_1[0][0]']    
                                                                                                  
 activation_4 (Activation)      (None, 32, 256)      0           ['conv1d_7[0][0]']               
                                                                                                  
 leaky_re_lu_2 (LeakyReLU)      (None, 128, 128)     0           ['conv1d_2[0][0]']               
                                                                                                  
 dropout_1 (Dropout)            (None, 32, 256)      0           ['activation_4[0][0]']           
                                                                                                  
 dropout (Dropout)              (None, 128, 128)     0           ['leaky_re_lu_2[0][0]']          
                                                                                                  
 max_pooling1d_4 (MaxPooling1D)  (None, 16, 256)     0           ['dropout_1[0][0]']              
                                                                                                  
 average_pooling1d_2 (AveragePo  (None, 64, 128)     0           ['dropout[0][0]']                
 oling1D)                                                                                         
                                                                                                  
 cross_attention_1 (CrossAttent  (None, 16, 128)     65536       ['max_pooling1d_4[0][0]',        
 ion)                                                             'average_pooling1d_2[0][0]']    
                                                                                                  
 cross_attention (CrossAttentio  (None, 64, 128)     81920       ['average_pooling1d_2[0][0]',    
 n)                                                               'max_pooling1d_4[0][0]']        
                                                                                                  
 flatten (Flatten)              (None, 2048)         0           ['cross_attention_1[0][0]']      
                                                                                                  
 flatten_1 (Flatten)            (None, 8192)         0           ['cross_attention[0][0]']        
                                                                                                  
 concatenate (Concatenate)      (None, 10240)        0           ['flatten[0][0]',                
                                                                  'flatten_1[0][0]']              
                                                                                                  
 dense (Dense)                  (None, 256)          2621696     ['concatenate[0][0]']            
                                                                                                  
 leaky_re_lu_3 (LeakyReLU)      (None, 256)          0           ['dense[0][0]']                  
                                                                                                  
 dense_1 (Dense)                (None, 7)            1799        ['leaky_re_lu_3[0][0]']          
                                                                                                  
==================================================================================================
Total params: 3,804,871
Trainable params: 3,804,871
Non-trainable params: 0
__________________________________________________________________________________________________
…
