…
 Layer (type)                   Output Shape         Param #     Connected to                     
==================================================================================================
 vib_in (InputLayer)            [(None, 2048, 1)]    0           []                               
                                                                                                  
 aco_in (InputLayer)            [(None, 2048, 1)]    0           []                               
                                                                                                  
 MDSCB1_v (MDSCB)               (None, 1024, 32)     20960       ['vib_in[0][0]']                 
                                                                                                  
 MDSCB1_a (MDSCB)               (None, 1024, 32)     20960       ['aco_in[0][0]']                 
                                                                                                  
 SCRM1_v (SCRM)                 (None, 1024, 32)     129         ['MDSCB1_v[0][0]']               
                                                                                                  
 SCRM1_a (SCRM)                 (None, 1024, 32)     129         ['MDSCB1_a[0][0]']               
                                                                                                  
 MDSCB2_v (MDSCB)               (None, 512, 32)      70176       ['SCRM1_v[0][0]']                
                                                                                                  
 MDSCB2_a (MDSCB)               (None, 512, 32)      70176       ['SCRM1_a[0][0]']                
                                                                                                  
 SCRM2_v (SCRM)                 (None, 512, 32)      129         ['MDSCB2_v[0][0]']               
                                                                                                  
 SCRM2_a (SCRM)                 (None, 512, 32)      129         ['MDSCB2_a[0][0]']               
                                                                                                  
 MDSCB3_v (MDSCB)               (None, 256, 32)      142048      ['SCRM2_v[0][0]']                
                                                                                                  
 MDSCB3_a (MDSCB)               (None, 256, 32)      142048      ['SCRM2_a[0][0]']                
                                                                                                  
 SCRM3_v (SCRM)                 (None, 256, 32)      129         ['MDSCB3_v[0][0]']               
                                                                                                  
 SCRM3_a (SCRM)                 (None, 256, 32)      129         ['MDSCB3_a[0][0]']               
                                                                                                  
 SFFM1 (SFFM)                   (None, 1024, 32)     4128        ['SCRM1_v[0][0]',                
                                                                  'SCRM1_a[0][0]']                
                                                                                                  
 SFFM2 (SFFM)                   (None, 512, 32)      4128        ['SCRM2_v[0][0]',                
                                                                  'SCRM2_a[0][0]']                
                                                                                                  
 SFFM3 (SFFM)                   (None, 256, 32)      4128        ['SCRM3_v[0][0]',                
                                                                  'SCRM3_a[0][0]']                
                                                                                                  
 ADFF (ADFF)                    (None, 3, 64)        14722       ['SFFM1[0][0]',                  
                                                                  'SFFM2[0][0]',                  
                                                                  'SFFM3[0][0]']                  
                                                                                                  
 DOT (DOT)                      (None, 3, 64)        99980       ['ADFF[0][0]']                   
                                                                                                  
 global_token_pool (GlobalAvera  (None, 64)          0           ['DOT[0][0]']                    
 gePooling1D)                                                                                     
                                                                                                  
 cls (Dense)                    (None, 7)            455         ['global_token_pool[0][0]']      
                                                                                                  
==================================================================================================
Total params: 594,683
Trainable params: 588,027
Non-trainable params: 6,656
__________________________________________________________________________________________________
…
