…
============================================================
Model: "MHCNN"
__________________________________________________________________________________________________
 Layer (type)                   Output Shape         Param #     Connected to                     
==================================================================================================
 input_3 (InputLayer)           [(None, 2048, 1)]    0           []                               
                                                                                                  
 conv1d_7 (Conv1D)              (None, 1024, 32)     544         ['input_3[0][0]']                
                                                                                                  
 leaky_re_lu_5 (LeakyReLU)      (None, 1024, 32)     0           ['conv1d_7[0][0]']               
                                                                                                  
 average_pooling1d_4 (AveragePo  (None, 512, 32)     0           ['leaky_re_lu_5[0][0]']          
 oling1D)                                                                                         
                                                                                                  
 conv1d_8 (Conv1D)              (None, 256, 64)      32832       ['average_pooling1d_4[0][0]']    
                                                                                                  
 leaky_re_lu_6 (LeakyReLU)      (None, 256, 64)      0           ['conv1d_8[0][0]']               
                                                                                                  
 input_4 (InputLayer)           [(None, 2048, 1)]    0           []                               
                                                                                                  
 average_pooling1d_5 (AveragePo  (None, 128, 64)     0           ['leaky_re_lu_6[0][0]']          
 oling1D)                                                                                         
                                                                                                  
 conv1d_12 (Conv1D)             (None, 1024, 32)     288         ['input_4[0][0]']                
                                                                                                  
 conv1d_9 (Conv1D)              (None, 128, 128)     131200      ['average_pooling1d_5[0][0]']    
                                                                                                  
 activation_3 (Activation)      (None, 1024, 32)     0           ['conv1d_12[0][0]']              
                                                                                                  
 leaky_re_lu_7 (LeakyReLU)      (None, 128, 128)     0           ['conv1d_9[0][0]']               
                                                                                                  
 max_pooling1d_3 (MaxPooling1D)  (None, 512, 32)     0           ['activation_3[0][0]']           
                                                                                                  
 average_pooling1d_6 (AveragePo  (None, 64, 128)     0           ['leaky_re_lu_7[0][0]']          
 oling1D)                                                                                         
                                                                                                  
 conv1d_13 (Conv1D)             (None, 256, 64)      16448       ['max_pooling1d_3[0][0]']        
                                                                                                  
 conv1d_10 (Conv1D)             (None, 64, 256)      524544      ['average_pooling1d_6[0][0]']    
                                                                                                  
 activation_4 (Activation)      (None, 256, 64)      0           ['conv1d_13[0][0]']              
                                                                                                  
 leaky_re_lu_8 (LeakyReLU)      (None, 64, 256)      0           ['conv1d_10[0][0]']              
                                                                                                  
 max_pooling1d_4 (MaxPooling1D)  (None, 128, 64)     0           ['activation_4[0][0]']           
                                                                                                  
 average_pooling1d_7 (AveragePo  (None, 32, 256)     0           ['leaky_re_lu_8[0][0]']          
 oling1D)                                                                                         
                                                                                                  
 conv1d_14 (Conv1D)             (None, 128, 128)     65664       ['max_pooling1d_4[0][0]']        
                                                                                                  
 conv1d_11 (Conv1D)             (None, 32, 256)      1048832     ['average_pooling1d_7[0][0]']    
                                                                                                  
 activation_5 (Activation)      (None, 128, 128)     0           ['conv1d_14[0][0]']              
                                                                                                  
 leaky_re_lu_9 (LeakyReLU)      (None, 32, 256)      0           ['conv1d_11[0][0]']              
                                                                                                  
 dropout_3 (Dropout)            (None, 128, 128)     0           ['activation_5[0][0]']           
                                                                                                  
 dropout_2 (Dropout)            (None, 32, 256)      0           ['leaky_re_lu_9[0][0]']          
                                                                                                  
 max_pooling1d_5 (MaxPooling1D)  (None, 64, 128)     0           ['dropout_3[0][0]']              
                                                                                                  
 average_pooling1d_8 (AveragePo  (None, 16, 256)     0           ['dropout_2[0][0]']              
 oling1D)                                                                                         
                                                                                                  
 cross_attention_3 (CrossAttent  (None, 64, 256)     163840      ['max_pooling1d_5[0][0]',        
 ion)                                                             'average_pooling1d_8[0][0]']    
                                                                                                  
 cross_attention_2 (CrossAttent  (None, 16, 256)     131072      ['average_pooling1d_8[0][0]',    
 ion)                                                             'max_pooling1d_5[0][0]']        
                                                                                                  
 flatten_2 (Flatten)            (None, 16384)        0           ['cross_attention_3[0][0]']      
                                                                                                  
 flatten_3 (Flatten)            (None, 4096)         0           ['cross_attention_2[0][0]']      
                                                                                                  
 dense_6 (Dense)                (None, 1)            16385       ['flatten_2[0][0]']              
                                                                                                  
 dense_7 (Dense)                (None, 1)            4097        ['flatten_3[0][0]']              
                                                                                                  
 concatenate_2 (Concatenate)    (None, 2)            0           ['dense_6[0][0]',                
                                                                  'dense_7[0][0]']                
                                                                                                  
 dense_5 (Dense)                (None, 2)            6           ['concatenate_2[0][0]']          
                                                                                                  
 tf.__operators__.getitem_2 (Sl  (None, 1)           0           ['dense_5[0][0]']                
 icingOpLambda)                                                                                   
                                                                                                  
 tf.__operators__.getitem_3 (Sl  (None, 1)           0           ['dense_5[0][0]']                
 icingOpLambda)                                                                                   
                                                                                                  
 lambda_2 (Lambda)              (None, 16384)        0           ['flatten_2[0][0]',              
                                                                  'tf.__operators__.getitem_2[0][0
                                                                 ]']                              
                                                                                                  
 lambda_3 (Lambda)              (None, 4096)         0           ['flatten_3[0][0]',              
                                                                  'tf.__operators__.getitem_3[0][0
                                                                 ]']                              
                                                                                                  
 concatenate_3 (Concatenate)    (None, 20480)        0           ['lambda_2[0][0]',               
                                                                  'lambda_3[0][0]']               
                                                                                                  
 dense_8 (Dense)                (None, 256)          5243136     ['concatenate_3[0][0]']          
                                                                                                  
 leaky_re_lu_10 (LeakyReLU)     (None, 256)          0           ['dense_8[0][0]']                
                                                                                                  
 dense_9 (Dense)                (None, 5)            1285        ['leaky_re_lu_10[0][0]']         
                                                                                                  
==================================================================================================
Total params: 7,380,173
Trainable params: 7,380,173
Non-trainable params: 0
__________________________________________________________________________________________________
…
