…
  Class IF-2  | 0Nm_BPFI_10  : 400 segments
  Class OF-1  | 0Nm_BPFO_03  : 400 segments
  Class OF-2  | 0Nm_BPFO_10  : 400 segments
Loading 2Nm ...
  Class NC-0  | 2Nm_Normal   : 400 segments
  Class IF-1  | 2Nm_BPFI_03  : 400 segments
  Class IF-2  | 2Nm_BPFI_10  : 400 segments
  Class OF-1  | 2Nm_BPFO_03  : 400 segments
  Class OF-2  | 2Nm_BPFO_10  : 400 segments
Loading 4Nm ...
  Class NC-0  | 4Nm_Normal   : 400 segments
  Class IF-1  | 4Nm_BPFI_03  : 400 segments
  Class IF-2  | 4Nm_BPFI_10  : 400 segments
  Class OF-1  | 4Nm_BPFO_03  : 400 segments
  Class OF-2  | 4Nm_BPFO_10  : 400 segments
[TestSet] 2Nm: (2000, 2048, 1) | 4Nm: (2000, 2048, 1)

>>> CFFN Two-Branch EDCN Summary:
Model: "CFFN_TwoBranch_EDCN"
__________________________________________________________________________________________________
 Layer (type)                   Output Shape         Param #     Connected to                     
==================================================================================================
 V_in (InputLayer)              [(None, 2048, 1)]    0           []                               
                                                                                                  
 C_in (InputLayer)              [(None, 2048, 1)]    0           []                               
                                                                                                  
 V_conv1 (Conv1D)               (None, 2048, 24)     1560        ['V_in[0][0]']                   
                                                                                                  
 C_conv1 (Conv1D)               (None, 2048, 24)     1560        ['C_in[0][0]']                   
                                                                                                  
 V_bn1 (BatchNormalization)     (None, 2048, 24)     96          ['V_conv1[0][0]']                
                                                                                                  
 C_bn1 (BatchNormalization)     (None, 2048, 24)     96          ['C_conv1[0][0]']                
                                                                                                  
 V_relu1 (Activation)           (None, 2048, 24)     0           ['V_bn1[0][0]']                  
                                                                                                  
 C_relu1 (Activation)           (None, 2048, 24)     0           ['C_bn1[0][0]']                  
                                                                                                  
 V_pool1 (MaxPooling1D)         (None, 128, 24)      0           ['V_relu1[0][0]']                
                                                                                                  
 C_pool1 (MaxPooling1D)         (None, 128, 24)      0           ['C_relu1[0][0]']                
                                                                                                  
 V_conv2 (Conv1D)               (None, 128, 48)      36912       ['V_pool1[0][0]']                
                                                                                                  
 C_conv2 (Conv1D)               (None, 128, 48)      36912       ['C_pool1[0][0]']                
                                                                                                  
 V_bn2 (BatchNormalization)     (None, 128, 48)      192         ['V_conv2[0][0]']                
                                                                                                  
 C_bn2 (BatchNormalization)     (None, 128, 48)      192         ['C_conv2[0][0]']                
                                                                                                  
 V_relu2 (Activation)           (None, 128, 48)      0           ['V_bn2[0][0]']                  
                                                                                                  
 C_relu2 (Activation)           (None, 128, 48)      0           ['C_bn2[0][0]']                  
                                                                                                  
 V_pool2 (MaxPooling1D)         (None, 64, 48)       0           ['V_relu2[0][0]']                
                                                                                                  
 C_pool2 (MaxPooling1D)         (None, 64, 48)       0           ['C_relu2[0][0]']                
                                                                                                  
 V_conv3 (Conv1D)               (None, 64, 96)       147552      ['V_pool2[0][0]']                
                                                                                                  
 C_conv3 (Conv1D)               (None, 64, 96)       147552      ['C_pool2[0][0]']                
                                                                                                  
 V_bn3 (BatchNormalization)     (None, 64, 96)       384         ['V_conv3[0][0]']                
                                                                                                  
 C_bn3 (BatchNormalization)     (None, 64, 96)       384         ['C_conv3[0][0]']                
                                                                                                  
 V_relu3 (Activation)           (None, 64, 96)       0           ['V_bn3[0][0]']                  
                                                                                                  
 C_relu3 (Activation)           (None, 64, 96)       0           ['C_bn3[0][0]']                  
                                                                                                  
 V_pool3 (MaxPooling1D)         (None, 32, 96)       0           ['V_relu3[0][0]']                
                                                                                                  
 C_pool3 (MaxPooling1D)         (None, 32, 96)       0           ['C_relu3[0][0]']                
                                                                                                  
 V_conv4 (Conv1D)               (None, 32, 192)      295104      ['V_pool3[0][0]']                
                                                                                                  
 C_conv4 (Conv1D)               (None, 32, 192)      295104      ['C_pool3[0][0]']                
                                                                                                  
 V_bn4 (BatchNormalization)     (None, 32, 192)      768         ['V_conv4[0][0]']                
                                                                                                  
 C_bn4 (BatchNormalization)     (None, 32, 192)      768         ['C_conv4[0][0]']                
                                                                                                  
 V_relu4 (Activation)           (None, 32, 192)      0           ['V_bn4[0][0]']                  
                                                                                                  
 C_relu4 (Activation)           (None, 32, 192)      0           ['C_bn4[0][0]']                  
                                                                                                  
 V_pool4 (MaxPooling1D)         (None, 16, 192)      0           ['V_relu4[0][0]']                
                                                                                                  
 C_pool4 (MaxPooling1D)         (None, 16, 192)      0           ['C_relu4[0][0]']                
                                                                                                  
 V_gap (GlobalAveragePooling1D)  (None, 192)         0           ['V_pool4[0][0]']                
                                                                                                  
 C_gap (GlobalAveragePooling1D)  (None, 192)         0           ['C_pool4[0][0]']                
                                                                                                  
 V_feat (Dense)                 (None, 96)           18528       ['V_gap[0][0]']                  
                                                                                                  
 C_feat (Dense)                 (None, 96)           18528       ['C_gap[0][0]']                  
                                                                                                  
 V_feat_relu (Activation)       (None, 96)           0           ['V_feat[0][0]']                 
                                                                                                  
 C_feat_relu (Activation)       (None, 96)           0           ['C_feat[0][0]']                 
                                                                                                  
 V_drop (Dropout)               (None, 96)           0           ['V_feat_relu[0][0]']            
                                                                                                  
 C_drop (Dropout)               (None, 96)           0           ['C_feat_relu[0][0]']            
                                                                                                  
 V_out (Dense)                  (None, 5)            485         ['V_drop[0][0]']                 
                                                                                                  
 C_out (Dense)                  (None, 5)            485         ['C_drop[0][0]']                 
                                                                                                  
==================================================================================================
Total params: 1,003,162
Trainable params: 1,001,722
Non-trainable params: 1,440
__________________________________________________________________________________________________
…
