…
配置: 仅声学输入, 无振动, 无Attention, 无加权
最优参数: {'lr': 0.0013, 'batch_size': 32, 'n_layers_aco': 5, 'dropout_aco': 0.27}
日志路径: D:\机械故障诊断实验\MHCNN_Ablation_Experiment\Exp2_Single_Aco\experiment_log_Exp2.txt


>>> Model Architecture Summary (Ablation 2):
Model: "model"
_________________________________________________________________
 Layer (type)                Output Shape              Param #   
=================================================================
 input_aco (InputLayer)      [(None, 2048, 1)]         0         
                                                                 
 conv1d (Conv1D)             (None, 1024, 32)          288       
                                                                 
 activation (Activation)     (None, 1024, 32)          0         
                                                                 
 max_pooling1d (MaxPooling1D  (None, 512, 32)          0         
 )                                                               
                                                                 
 conv1d_1 (Conv1D)           (None, 256, 64)           16448     
                                                                 
 activation_1 (Activation)   (None, 256, 64)           0         
                                                                 
 max_pooling1d_1 (MaxPooling  (None, 128, 64)          0         
 1D)                                                             
                                                                 
 conv1d_2 (Conv1D)           (None, 128, 128)          65664     
                                                                 
 activation_2 (Activation)   (None, 128, 128)          0         
                                                                 
 max_pooling1d_2 (MaxPooling  (None, 64, 128)          0         
 1D)                                                             
                                                                 
 conv1d_3 (Conv1D)           (None, 64, 256)           262400    
                                                                 
 activation_3 (Activation)   (None, 64, 256)           0         
                                                                 
 max_pooling1d_3 (MaxPooling  (None, 32, 256)          0         
 1D)                                                             
                                                                 
 conv1d_4 (Conv1D)           (None, 32, 256)           524544    
                                                                 
 activation_4 (Activation)   (None, 32, 256)           0         
                                                                 
 dropout (Dropout)           (None, 32, 256)           0         
                                                                 
 max_pooling1d_4 (MaxPooling  (None, 16, 256)          0         
 1D)                                                             
                                                                 
 flatten (Flatten)           (None, 4096)              0         
                                                                 
 dense (Dense)               (None, 256)               1048832   
                                                                 
 leaky_re_lu (LeakyReLU)     (None, 256)               0         
                                                                 
 dense_1 (Dense)             (None, 7)                 1799      
                                                                 
=================================================================
Total params: 1,919,975
Trainable params: 1,919,975
Non-trainable params: 0
_________________________________________________________________
========================================


======== 测试样本量: 5 (Run 1-10) ========
  [S5-R1] Acc: 0.3259, F1: 0.3167
  [S5-R2] Acc: 0.2984, F1: 0.2884
…
