…
 Layer (type)                   Output Shape         Param #     Connected to                     
==================================================================================================
 vib_input (InputLayer)         [(None, 2048, 1)]    0           []                               
                                                                                                  
 cur_input (InputLayer)         [(None, 2048, 1)]    0           []                               
                                                                                                  
 SIEU (SIEULayer)               (None, 64, 64, 3)    8256        ['vib_input[0][0]',              
                                                                  'cur_input[0][0]']              
                                                                                                  
 coarse_v_conv5 (Conv2D)        (None, 32, 32, 64)   4800        ['SIEU[0][0]']                   
                                                                                                  
 coarse_c_conv5 (Conv2D)        (None, 32, 32, 64)   4800        ['SIEU[1][0]']                   
                                                                                                  
 coarse_v_bn5 (BatchNormalizati  (None, 32, 32, 64)  256         ['coarse_v_conv5[0][0]']         
 on)                                                                                              
                                                                                                  
 coarse_c_bn5 (BatchNormalizati  (None, 32, 32, 64)  256         ['coarse_c_conv5[0][0]']         
 on)                                                                                              
                                                                                                  
 coarse_v_relu5 (Activation)    (None, 32, 32, 64)   0           ['coarse_v_bn5[0][0]']           
                                                                                                  
 coarse_c_relu5 (Activation)    (None, 32, 32, 64)   0           ['coarse_c_bn5[0][0]']           
                                                                                                  
 coarse_v_conv3 (Conv2D)        (None, 32, 32, 32)   18464       ['coarse_v_relu5[0][0]']         
                                                                                                  
 coarse_c_conv3 (Conv2D)        (None, 32, 32, 32)   18464       ['coarse_c_relu5[0][0]']         
                                                                                                  
 coarse_fuse_add (Add)          (None, 32, 32, 32)   0           ['coarse_v_conv3[0][0]',         
                                                                  'coarse_c_conv3[0][0]']         
                                                                                                  
 fine_b1_k3_conv_1 (Conv2D)     (None, 32, 32, 32)   9216        ['coarse_fuse_add[0][0]']        
                                                                                                  
 fine_b2_k5_conv_1 (Conv2D)     (None, 32, 32, 32)   25600       ['coarse_fuse_add[0][0]']        
                                                                                                  
 fine_b1_k3_bn_1 (BatchNormaliz  (None, 32, 32, 32)  128         ['fine_b1_k3_conv_1[0][0]']      
 ation)                                                                                           
                                                                                                  
 fine_b2_k5_bn_1 (BatchNormaliz  (None, 32, 32, 32)  128         ['fine_b2_k5_conv_1[0][0]']      
 ation)                                                                                           
                                                                                                  
 fine_b1_k3_relu_1 (Activation)  (None, 32, 32, 32)  0           ['fine_b1_k3_bn_1[0][0]']        
                                                                                                  
 fine_b2_k5_relu_1 (Activation)  (None, 32, 32, 32)  0           ['fine_b2_k5_bn_1[0][0]']        
                                                                                                  
 fine_b1_k3_tfaffu_1 (TFAFFU)   (None, 32, 32, 32)   4422        ['fine_b1_k3_relu_1[0][0]']      
                                                                                                  
 fine_b2_k5_tfaffu_1 (TFAFFU)   (None, 32, 32, 32)   4422        ['fine_b2_k5_relu_1[0][0]']      
                                                                                                  
 fine_b1_k3_conv_2 (Conv2D)     (None, 32, 32, 16)   4608        ['fine_b1_k3_tfaffu_1[0][0]']    
                                                                                                  
 fine_b2_k5_conv_2 (Conv2D)     (None, 32, 32, 16)   12800       ['fine_b2_k5_tfaffu_1[0][0]']    
                                                                                                  
 fine_b1_k3_bn_2 (BatchNormaliz  (None, 32, 32, 16)  64          ['fine_b1_k3_conv_2[0][0]']      
 ation)                                                                                           
                                                                                                  
 fine_b2_k5_bn_2 (BatchNormaliz  (None, 32, 32, 16)  64          ['fine_b2_k5_conv_2[0][0]']      
 ation)                                                                                           
                                                                                                  
 fine_b1_k3_relu_2 (Activation)  (None, 32, 32, 16)  0           ['fine_b1_k3_bn_2[0][0]']        
                                                                                                  
 fine_b2_k5_relu_2 (Activation)  (None, 32, 32, 16)  0           ['fine_b2_k5_bn_2[0][0]']        
                                                                                                  
 fine_b1_k3_tfaffu_2 (TFAFFU)   (None, 32, 32, 16)   1330        ['fine_b1_k3_relu_2[0][0]']      
                                                                                                  
 fine_b2_k5_tfaffu_2 (TFAFFU)   (None, 32, 32, 16)   1330        ['fine_b2_k5_relu_2[0][0]']      
                                                                                                  
 fine_b1_k3_conv_3 (Conv2D)     (None, 32, 32, 8)    1152        ['fine_b1_k3_tfaffu_2[0][0]']    
                                                                                                  
 fine_b2_k5_conv_3 (Conv2D)     (None, 32, 32, 8)    3200        ['fine_b2_k5_tfaffu_2[0][0]']    
                                                                                                  
 fine_b1_k3_bn_3 (BatchNormaliz  (None, 32, 32, 8)   32          ['fine_b1_k3_conv_3[0][0]']      
 ation)                                                                                           
                                                                                                  
 fine_b2_k5_bn_3 (BatchNormaliz  (None, 32, 32, 8)   32          ['fine_b2_k5_conv_3[0][0]']      
 ation)                                                                                           
                                                                                                  
 fine_b1_k3_relu_3 (Activation)  (None, 32, 32, 8)   0           ['fine_b1_k3_bn_3[0][0]']        
                                                                                                  
 fine_b2_k5_relu_3 (Activation)  (None, 32, 32, 8)   0           ['fine_b2_k5_bn_3[0][0]']        
                                                                                                  
 fine_b1_k3_tfaffu_3 (TFAFFU)   (None, 32, 32, 8)    456         ['fine_b1_k3_relu_3[0][0]']      
                                                                                                  
 fine_b2_k5_tfaffu_3 (TFAFFU)   (None, 32, 32, 8)    456         ['fine_b2_k5_relu_3[0][0]']      
                                                                                                  
 final_fuse_concat (Concatenate  (None, 32, 32, 80)  0           ['coarse_v_conv3[0][0]',         
 )                                                                'coarse_c_conv3[0][0]',         
                                                                  'fine_b1_k3_tfaffu_3[0][0]',    
                                                                  'fine_b2_k5_tfaffu_3[0][0]']    
                                                                                                  
 flatten (Flatten)              (None, 81920)        0           ['final_fuse_concat[0][0]']      
                                                                                                  
 fc1_128 (Dense)                (None, 128)          10485888    ['flatten[0][0]']                
                                                                                                  
 drop_fc1 (Dropout)             (None, 128)          0           ['fc1_128[0][0]']                
                                                                                                  
 softmax (Dense)                (None, 5)            645         ['drop_fc1[0][0]']               
                                                                                                  
==================================================================================================
Total params: 10,611,269
Trainable params: 10,601,189
Non-trainable params: 10,080
__________________________________________________________________________________________________
…
